app/data.pth (torch, 29994 bytes, 6 tensors)

l1.weight f4 [8, 426]
0	0x3ef89ede	0.48558706
1	0xbfbebee7	-1.4902009
2	0x400185fa	2.0238023
3	0x3f417885	0.75574523
4	0x3ec89811	0.39178517
5	0xbf4566ea	-0.7711016
6	0xbf3adc96	-0.7299284
7	0x3f0f49bc	0.55971885
8	0x3f7026bb	0.938091
9	0xbfac2720	-1.344944
10	0x3f9b41b2	1.2129424
11	0xbe14a0da	-0.14514485
12	0x3fbc2048	1.4697351
13	0x3d5e1c9d	0.054226507
14	0x400e32e5	2.2218564
15	0xbfaf9a3b	-1.3718942
16	0xbe9bcdcc	-0.30430448
17	0x3ed0db7e	0.4079246
18	0x40683d14	3.628728
19	0x40e556fe	7.166869
20	0x3edc01f5	0.42970243
21	0x404bd158	3.1846523
22	0x4023c3b2	2.5588193
23	0xbf0c68dd	-0.5484751
24	0x3fee2143	1.8603901
25	0xbf2e58d4	-0.6810429
26	0xbf4c3cab	-0.7978007
27	0xbff757f5	-1.9323717
28	0xbf1cbe4a	-0.6122786
29	0xbcf0ba26	-0.029385637
30	0x400df9c5	2.2183697
31	0x3f4cd4a2	0.8001195
32	0x40153bf3	2.331784
33	0xbec244e8	-0.37943196
34	0x3fbbde9d	1.4677311
35	0x408afe5f	4.343551
36	0xbfb6da54	-1.4285378
37	0x401d6804	2.4594736
38	0xbf09b854	-0.5379689
39	0x3eb7ec75	0.3592259
40	0xbfbe261c	-1.485538
41	0xbf696b63	-0.91179484
42	0xbe4b4f6f	-0.1985452
43	0xbf5002a3	-0.81254023
44	0xbfcc588a	-1.596452
45	0x4019b28a	2.4015222
46	0x3ff6d846	1.9284751
47	0x4038a9ff	2.8853757
48	0x3e4d00fc	0.20019907
49	0xbf372456	-0.7153982
50	0x3cdd5e75	0.02702258
51	0x3fb8843e	1.4415357
52	0x400b6fb2	2.1786923
53	0x3f1615d7	0.58627075
54	0x3eb7089c	0.35748756
55	0xbf4ae94b	-0.79262227
56	0x4010285a	2.2524629
57	0x4015776f	2.3354146
58	0xbf3ceb73	-0.73796767
59	0xc01142ca	-2.2697015
60	0xc04c801b	-3.195319
61	0xbfc9baf4	-1.5760179
62	0x3fe08777	1.754134
63	0x3f49bd76	0.7880472
64	0x3fec4117	1.8457364
65	0x400472a6	2.0694976
66	0xbdea8865	-0.114517964
67	0xbf47fcb8	-0.78119993
68	0xbf95e8f3	-1.1711715
69	0x40104235	2.254041
70	0x3fe05a6d	1.7527596
71	0xbe871843	-0.26385698
72	0x3fc860d0	1.5654545
73	0x4033f4ba	2.811812
74	0xbfa0a06b	-1.2548956
75	0xbef74347	-0.48293516
76	0x3f79786f	0.9744939
77	0xc026e8ec	-2.6079664
78	0x404ca469	3.1975348
79	0x3f2bd797	0.6712584
80	0xbf1737ec	-0.59069705
81	0xbf6f34f6	-0.93440187
82	0x3f0236bb	0.5086476
83	0xbedc86f9	-0.43071726
84	0x402f4e09	2.739138
85	0x3f86de0b	1.0536512
86	0xbf66a6d4	-0.9009831
87	0xbee512da	-0.44740945
88	0x400a2375	2.1584141
89	0x3ebfd2dc	0.3746556
90	0xbe7a95ec	-0.24471253
91	0x40018e56	2.0243125
92	0xbf3d6c8b	-0.7399375
93	0x3f5fa452	0.8736011
94	0x3d044408	0.032291442
95	0x3fb9357b	1.4469446
96	0x4007df97	2.1230218
97	0x3fba0cfe	1.4535215
98	0xbf8e4084	-1.1113439
99	0x3e20a8f2	0.15689448
100	0x3ead8ea1	0.3389788
101	0x3fa4a342	1.2862322
102	0x3f1d91f7	0.6155085
103	0x404d482a	3.2075295
104	0x3fc3ac2e	1.528692
105	0x406999f1	3.6500208
106	0x3fba5e1e	1.4559972
107	0x3edc61db	0.43043408
108	0x3f9aca05	1.2092901
109	0xbe8df114	-0.2772299
110	0xbea746b0	-0.32671118
111	0x3dc10542	0.09424831
112	0x3f92a3db	1.1456255
113	0x406c5f4d	3.6933167
114	0x3fadbe96	1.3573787
115	0x3f2a1b05	0.6644748
116	0x3e483523	0.1955152
117	0xbf8144ea	-1.0099156
118	0xbf49d8d9	-0.7884651
119	0x3d61d81a	0.05513773
120	0x3f0d6322	0.5522939
121	0x404d78b2	3.2104917
122	0x3f8fd3a8	1.1236467
123	0x3f961947	1.1726464
124	0x4042d4c8	3.0442371
125	0x3f892d68	1.0716982
126	0x3f5e40c0	0.8681755
127	0x3f912a6d	1.1341072
128	0x3fa26197	1.2686032
129	0xbeb70d2b	-0.35752234
130	0xbf371494	-0.71515775
131	0xbdf4ac77	-0.119469576
132	0x3f2233b0	0.6336012
133	0xc054752d	-3.3196518
134	0xbe9cd4dd	-0.30631152
135	0xbfe19794	-1.7624383
136	0xbf04ee5e	-0.5192622
137	0xbf465c62	-0.77484715
138	0x403a0e1b	2.907111
139	0x403faad9	2.9948027
140	0xbf3757c4	-0.71618295
141	0x3f43c85d	0.76477605
142	0xc05c64c6	-3.4436507
143	0x401f3712	2.4877362
144	0x3d3107c7	0.043220308
145	0x3f0053cb	0.5012786
146	0x3fea7de3	1.8319668
147	0x3ea8c45f	0.3296232
148	0xbf843a5c	-1.033031
149	0x3ebbb220	0.36659336
150	0x3fcfe829	1.6242725
151	0x3fd401f5	1.6563097
152	0x3f8d58a4	1.1042676
153	0x3f816600	1.0109253
154	0x3ff0b82b	1.8806204
155	0x3f85fe9f	1.0468329
156	0xbfd9f903	-1.7029117
157	0x3fde1515	1.7350184
158	0x3fda88ce	1.7073
159	0xbf390a18	-0.72281027
160	0xbe85379e	-0.26018995
161	0x3fcabb15	1.5838343
162	0x3fa148f3	1.2600387
163	0x3fa468f5	1.284453
164	0x3f8bed50	1.0931797
165	0xbe17907c	-0.1480121
166	0x3fdf1172	1.7427199
167	0xbf05b15b	-0.5222375
168	0x3e210f50	0.15728498
169	0xbe1d5045	-0.15362652
170	0xbd1cce21	-0.038282517
171	0x3faabbf9	1.3338615
172	0x3fb5f9a9	1.4216815
173	0xbf15ebdc	-0.5856302
174	0x3fb4ff63	1.4140438
175	0x3f31f26d	0.6951054
176	0x3fd58719	1.6681854
177	0x3fc5d762	1.5456355
178	0x3f99337e	1.1968839
179	0xc03e656e	-2.9749408
180	0xbd438037	-0.047729697
181	0x3f9dda7a	1.2332299
182	0x3f93776a	1.1520817
183	0x3f02407e	0.5087966
184	0xc04b9a2e	-3.1812854
185	0x402dae67	2.7137697
186	0x3f457151	0.7712603
187	0x3f8b2143	1.0869526
188	0xbf309bbe	-0.68987644
189	0x3fd1ca35	1.6389834
190	0x3e8cc33a	0.27492696
191	0x3fcb6358	1.5889692
192	0x3f62676b	0.88439053
193	0x3ff95c3a	1.948127
194	0x3f813d0c	1.0096755
195	0x3e9491e7	0.29017565
196	0xbf8282e3	-1.0196193
197	0x3f343dad	0.7040661
198	0x3f844bbe	1.0335615
199	0xbf9b1bd2	-1.2117865
200	0x3ef961bf	0.48707387
201	0x3ed8be8b	0.42332873
202	0xbfac2989	-1.3450176
203	0x3eb97d1d	0.36228266
204	0x3dedeefa	0.11617847
205	0x3e999e14	0.30003417
206	0x3ff96d77	1.9486531
207	0x3daeab4f	0.08528768
208	0x3f882451	1.0636083
209	0xbff1a455	-1.8878275
210	0xbe632c11	-0.22184779
211	0x3f6470b1	0.89234453
212	0x3febf574	1.8434281
213	0xbec91698	-0.3927505
214	0xbf88256f	-1.0636424
215	0x3ff65787	1.9245461
216	0x4016dc7b	2.357207
217	0x40330c7e	2.7976375
218	0xbdb0a05c	-0.08624336
219	0xbf7254b3	-0.9466049
220	0x3fcd2d9c	1.6029544
221	0xbd897840	-0.06712389
222	0x3e57f502	0.21089557
223	0x3fa27547	1.269204
224	0x3fed075f	1.8517874
225	0x407b26e0	3.9242477
226	0xbf168e7d	-0.5881117
227	0x3cee851f	0.029116211
228	0x3fcb4ed2	1.5883429
229	0xbd562fc2	-0.05229164
230	0xbd28e595	-0.04123457
231	0xbf529fe9	-0.82275254
232	0x3e18e81a	0.1493229
233	0x3f82fb14	1.0232873
234	0x3ea670fe	0.3250808
235	0x3f3ef788	0.7459645
236	0x3fac5c5a	1.3465683
237	0x3f076f63	0.5290434
238	0x3f3661f0	0.7124319
239	0x3f1eecc2	0.62080014
240	0x3fd3d301	1.6548768
241	0x3ef25021	0.47326759
242	0x3f0d809a	0.55274355
243	0x3f43f519	0.76545864
244	0xbf490e21	-0.78537184
245	0x3fee29c4	1.8606496
246	0xbfdd4c96	-1.7288997
247	0x3f71ef36	0.9450563
248	0xbeb30f48	-0.34972596
249	0xbfbe6452	-1.4874365
250	0x40276eb2	2.6161313
251	0x3f6f11ba	0.93386424
252	0xbca93bdd	-0.020658428
253	0x3f7694c4	0.9632075
254	0x4072b5e0	3.7923508
255	0x3e7e5d62	0.2484031

l1.bias f4 [8]
0	0x3f0f0d13	0.55879325
1	0x3f4f73fb	0.8103635
2	0x3f93be1c	1.1542392
3	0x3f1611ad	0.5862072
4	0x3f854ee2	1.0414698
5	0x3f7ac08c	0.97950053
6	0x3f87cff9	1.0610343
7	0x3fa61484	1.2975011

l2.weight f4 [8, 8]
0	0x3f7b0af0	0.98063564
1	0x402a75a8	2.6634312
2	0xbfb60dd9	-1.4222976
3	0x3fef3bb8	1.86901
4	0xbfaae424	-1.3350873
5	0xbf676f9f	-0.90404695
6	0x3ec49977	0.38398334
7	0xbe12361d	-0.14278455
8	0xbf7e9780	-0.9944992
9	0xbef1defe	-0.47240442
10	0xbfce0f43	-1.6098408
11	0x3fb757dc	1.4323688
12	0x401ba1e1	2.4317553
13	0x3fed62a2	1.8545725
14	0x3f41929e	0.75614345
15	0x3fce18ee	1.6101358
16	0x403be926	2.9361053
17	0x3f9b34ca	1.2125485
18	0x3faee4f4	1.3663621
19	0xbf1180e8	-0.5683732
20	0x40375aaa	2.8649087
21	0x3ff2cc3a	1.8968575
22	0xbfc79364	-1.5591855
23	0xbf3a2e01	-0.72726446
24	0x40116834	2.271985
25	0xbfdeddcd	-1.7411438
26	0xbf7dc500	-0.99128723
27	0xbefe6afc	-0.49690998
28	0x3f7beac2	0.98405087
29	0x3fd4d5e6	1.6627777
30	0x3f99aea6	1.2006423
31	0x3ff7f87c	1.9372706
32	0xc007ecae	-2.1238208
33	0x4010e40b	2.2639186
34	0x3f782ff1	0.9694815
35	0xbf239791	-0.63903147
36	0xbf114909	-0.5675207
37	0xbf3b2550	-0.7310381
38	0xbf905067	-1.1274537
39	0x406195f1	3.5247767
40	0xbf1dc564	-0.6162932
41	0x3f5c3041	0.8601113
42	0xbe1d8c6f	-0.15385602
43	0xbe12a83c	-0.14321989
44	0xbfa88bb8	-1.3167639
45	0x4003be69	2.0584967
46	0x3fa7f91e	1.31229
47	0xbfa77106	-1.3081367
48	0xc00157ec	-2.0209913
49	0xbf896a5e	-1.0735586
50	0x4045f97f	3.093353
51	0xbfa95d5d	-1.3231617
52	0xbf7eb5d3	-0.9949619
53	0x3fa6a372	1.301863
54	0x3fd9b4a0	1.7008247
55	0x3f0d1474	0.55109334
56	0x3e76f8c0	0.24118328
57	0xbec9efe1	-0.39440826
58	0xbf021307	-0.50810283
59	0x404a88c4	3.1645975
60	0xbf61ab66	-0.8815216
61	0xbfe8f023	-1.8198284
62	0x401ab138	2.4170666
63	0x3ec43676	0.383228

l2.bias f4 [8]
0	0xbe9ef48b	-0.31045946
1	0x3d529903	0.051415455
2	0x3ec97c99	0.39352873
3	0xbebef815	-0.37298647
4	0x3ec4f6fc	0.38469684
5	0xbf745262	-0.95438206
6	0x3f6b1a55	0.91837054
7	0x3f9b7143	1.214394

l3.weight f4 [128, 8]
0	0xc0c9c166	-6.304858
1	0xc0b2f452	-5.5923243
2	0xbf88d725	-1.0690657
3	0xbfcd8b0f	-1.6058062
4	0xbffdcbd4	-1.9827828
5	0xc0837d3b	-4.109037
6	0x3f89f5b6	1.077811
7	0x3fc610aa	1.5473835
8	0xc0ba794f	-5.827308
9	0xc0b4efa5	-5.6542535
10	0xbff57dc7	-1.9179009
11	0x3eed1103	0.4630204
12	0xbd0c5693	-0.03426225
13	0xbf83bcb3	-1.0291961
14	0x3ed4a942	0.41535383
15	0x3f00a113	0.5024578
16	0xc0dd8c51	-6.9233785
17	0xc08428dd	-4.129988
18	0xbfce6e9f	-1.6127509
19	0xbfe7ca38	-1.8108587
20	0x3d959120	0.07303071
21	0xbf3bee72	-0.73410714
22	0x3f9a36a9	1.2047931
23	0x3cd9095a	0.026493717
24	0xc03bb4e9	-2.9329169
25	0xc07a1274	-3.9073763
26	0xbfdf18a5	-1.7429396
27	0xc0724e45	-3.7860272
28	0x3f72927b	0.9475476
29	0xc0844963	-4.1339583
30	0x3f4f8475	0.8106149
31	0x3f005398	0.50127554
32	0xbfbd435b	-1.478618
33	0xc09d653b	-4.918607
34	0xbfa8f740	-1.3200455
35	0x3eb60ac6	0.35555094
36	0x3f5b8a04	0.8575747
37	0xc08bb34f	-4.3656383
38	0x3e35c589	0.17751135
39	0xbe1831d2	-0.14862755
40	0xc0c31f6a	-6.0975847
41	0xc0969d31	-4.7066884
42	0xbe1df6e2	-0.1542621
43	0x3faac420	1.3341103
44	0xc053851f	-3.305
45	0xbfc89f32	-1.5673583
46	0xbec1bf67	-0.3784134
47	0xbf174c00	-0.5910034
48	0xbf944713	-1.158419
49	0xbfca22ca	-1.5791867
50	0xc02fb1ff	-2.745239
51	0xc095ca47	-4.680942
52	0xbf41dd90	-0.757287
53	0xc0cbeba0	-6.372513
54	0x3f050217	0.51956314
55	0x3f9b4683	1.2130893
56	0xc0aaa8fb	-5.3331275
57	0xbfee7279	-1.8628684
58	0xbf8241dd	-1.017635
59	0xbf00b81f	-0.50280946
60	0x3e81e43c	0.25369442
61	0xc09bf9ae	-4.8742285
62	0x3f094cf8	0.5363307
63	0x3e98f60e	0.29875225
64	0xc056090f	-3.344303
65	0xc09214d0	-4.5650406
66	0xc09760ae	-4.7305517
67	0x3ed0ec5e	0.40805334
68	0xbfb08fa2	-1.3793833
69	0x3e3980f7	0.18115602
70	0x3f26b889	0.6512533
71	0x3f23b061	0.6394101
72	0xc019d999	-2.403906
73	0xc09a13d7	-4.814922
74	0xbf5705be	-0.83993137
75	0x3f2e95d6	0.6819738
76	0xbf3ac322	-0.72954
77	0xc0a2ec78	-5.091366
78	0x3d94ddc0	0.07268858
79	0x3ed8755f	0.42277047
80	0xbec69667	-0.38786623
81	0xc065c7e8	-3.5903263
82	0x3d30f098	0.043198198
83	0xbf2824ca	-0.65681136
84	0xbce0b5c9	-0.027430432
85	0xbeddf094	-0.4334761
86	0x3df93254	0.121678025
87	0x3d94210c	0.07232866
88	0xc00268c9	-2.0376456
89	0xc06792b4	-3.618329
90	0xbf88c00e	-1.068361
91	0xbf9bbe15	-1.2167383
92	0xc00fa50a	-2.2444482
93	0x400b36eb	2.175227
94	0x3f1d1f6c	0.6137607
95	0xc0731337	-3.7980478
96	0xbe86859e	-0.26273817
97	0xc023bf37	-2.5585458
98	0xbe888981	-0.26667407
99	0xbc8ff6ae	-0.01757368
100	0xbea07e0e	-0.31346172
101	0xbe1b1eb1	-0.15148427
102	0x3e4cdb5c	0.20005554
103	0xbe446a19	-0.19181098
104	0xc00651c4	-2.0987406
105	0xc036436a	-2.8478646
106	0xbf075bd7	-0.5287451
107	0x3f9a8bdf	1.2073935
108	0xc0ef6e02	-7.4821787
109	0x3f9c89a0	1.22295
110	0xbfa71d51	-1.3055822
111	0xbeecf4f3	-0.4628063
112	0xbe8eb686	-0.2787363
113	0xbf525b4b	-0.8217055
114	0xc02499bc	-2.5718832
115	0xbf5e6752	-0.86876404
116	0x3fa62443	1.2979816
117	0xbe7ec2dd	-0.24879022
118	0xbdfb8e9a	-0.122830585
119	0xc046a398	-3.103735
120	0xc011f978	-2.2808514
121	0x3f33ae63	0.7018797
122	0xbf94eb3a	-1.1634285
123	0xbe32ccf7	-0.17461
124	0x3fb587bd	1.4182049
125	0xc0c55546	-6.1666594
126	0xc0eb4c37	-7.3530536
127	0xbfd9a088	-1.7002115
128	0xbfcb0205	-1.5859991
129	0x3f6cfeb3	0.9257614
130	0xbef79b42	-0.4836064
131	0x3f471880	0.7777176
132	0xbfc49e22	-1.5360758
133	0xc0c0c477	-6.0239825
134	0xc0edcb05	-7.4310327
135	0xc0043712	-2.0658612
136	0x3eeaeee6	0.4588539
137	0xbfff6af3	-1.9954513
138	0xc05625a4	-3.3460474
139	0xc0d9b3c1	-6.8031926
140	0x3f2a7fbb	0.6660115
141	0x3fcbb065	1.5913206
142	0x3e41dea2	0.18932584
143	0xbf512bbc	-0.8170736
144	0xbf785f20	-0.9702015
145	0x3eb90cd8	0.36142612
146	0xbd822663	-0.06354978
147	0xc083241f	-4.0981593
148	0x3f67aa17	0.9049391
149	0xc138b509	-11.544198
150	0xc0b76730	-5.731346
151	0xbf93be50	-1.1542454
152	0xbf227811	-0.63464457
153	0xbf5d3c27	-0.8641991
154	0xc0dd530d	-6.916388
155	0x3fc423eb	1.5323461
156	0xbfb770f3	-1.4331344
157	0xbfdcd105	-1.7251288
158	0xbe929d28	-0.28635526
159	0x3e1263a6	0.14295825
160	0xc0472839	-3.11183
161	0xbf8b90da	-1.090358
162	0xc031907a	-2.7744431
163	0xbea78541	-0.32718852
164	0x3f9ef9d7	1.2419995
165	0xbfbe22ab	-1.485433
166	0x3f0477f3	0.5174553
167	0xbf9f56de	-1.2448385
168	0xc017e2b9	-2.373213
169	0xbf2df614	-0.6795361
170	0xc0d6c2c5	-6.7112756
171	0x3f1c7fcc	0.611325
172	0x3e04f88e	0.12985441
173	0xbeaf2fe5	-0.34216228
174	0x3ec2a0dd	0.38013354
175	0xbf62d8ea	-0.88612235
176	0xc087be79	-4.242001
177	0xc0520313	-3.2814376
178	0xc071e75f	-3.7797468
179	0x3f157d8a	0.5839468
180	0x3e76387a	0.24044982
181	0xc0484561	-3.1292346
182	0x3f4d41d1	0.8017855
183	0x3d90f5a7	0.070781045
184	0xbf1337b8	-0.57506895
185	0xc0cfd554	-6.494791
186	0xc027fd4a	-2.6248345
187	0xbe13f87b	-0.14450257
188	0x3f43a68b	0.76426
189	0x3f09f7a9	0.53893524
190	0x3f537606	0.82601964
191	0xbf0843f2	-0.53228676
192	0xbf43c87e	-0.764778
193	0x3e67a05a	0.22619763
194	0xbf745dea	-0.954558
195	0xbec41b4e	-0.38302082
196	0xbfdf89c9	-1.7463924
197	0x3f8a625e	1.0811269
198	0xbfd92a4b	-1.6966032
199	0xc03611a9	-2.844828
200	0xc0cb0350	-6.3441544
201	0x3c6238eb	0.013807516
202	0xc029a28a	-2.6505456
203	0x3f253bf3	0.645446
204	0xbe6892ba	-0.22712222
205	0xc01d9738	-2.4623547
206	0x3eca1d9b	0.39475712
207	0xbe72d9a9	-0.23715843
208	0xbf478b0a	-0.7794653
209	0x3f45579d	0.7708681
210	0xbf997a44	-1.1990438
211	0xbd497cfc	-0.04919146
212	0xc0bca318	-5.894909
213	0x3e1d47f4	0.15359479
214	0xbe7eb97b	-0.24875443
215	0xbf0c616a	-0.5483614
216	0xc03940d3	-2.8945816
217	0x3f0d4510	0.55183506
218	0xc006b5b4	-2.1048403
219	0xbfb6b798	-1.4274778
220	0xbfb97e66	-1.4491699
221	0xc0fe0027	-7.9375186
222	0x3e141fd8	0.14465272
223	0x3f8e2d40	1.1107559
224	0xbfd64386	-1.6739357
225	0x3f6f8125	0.93556434
226	0xc023a3c8	-2.5568714
227	0xbd1c3243	-0.03813387
228	0x3f4edff2	0.80810463
229	0xc019ff3b	-2.406203
230	0xbf39ab2d	-0.7252682
231	0xc012d30b	-2.294131
232	0xbfcdb71e	-1.6071508
233	0xbd970429	-0.0737384
234	0xbfc1ac7e	-1.5130765
235	0x3ec71c64	0.38888848
236	0x3d287011	0.0411225
237	0x3ef4806f	0.47754237
238	0xbf35817b	-0.70900697
239	0xc0667d28	-3.601389
240	0xc0079595	-2.1185048
241	0x3f10a8d0	0.5650759
242	0xbf0d8742	-0.5528451
243	0xc023ac54	-2.557393
244	0x3faa71de	1.3316
245	0xc0dbfdea	-6.8747454
246	0x3e5001ec	0.20313233
247	0x3b95369f	0.0045536305
248	0x3f1f26f6	0.62168825
249	0xc0472456	-3.1115928
250	0xbc0faf52	-0.008769827
251	0xc00d605d	-2.2090065
252	0xc0074e02	-2.1141362
253	0x3f76ddb3	0.96432036
254	0xbf9993ed	-1.1998268
255	0x3d903f2d	0.070433

l3.bias f4 [128]
0	0xbf363075	-0.7116769
1	0xbdb3553a	-0.0875649
2	0xbef304c8	-0.47464585
3	0xbe357e6a	-0.17724004
4	0xbf901bc0	-1.1258469
5	0xbf2d24ab	-0.67634076
6	0xbfae6f2e	-1.3627679
7	0xbf2073b7	-0.62676567
8	0xbd8bb9d5	-0.06822554
9	0xbf5b6425	-0.85699683
10	0x3f01e1f3	0.50735396
11	0xbf5eeed0	-0.8708315
12	0xbc557f71	-0.013030873
13	0xbfaeb284	-1.3648229
14	0xbf3d6d55	-0.7399495
15	0xbfd20030	-1.6406307
16	0xbfe44c8d	-1.7835861
17	0xc012a2ea	-2.2911935
18	0xc0a51d77	-5.159847
19	0xbf2b9e25	-0.67038184
20	0xbf90da0c	-1.1316543
21	0xc004715d	-2.0694191
22	0xbeec752b	-0.46183142
23	0xbefe9833	-0.49725494
24	0xbf8fd2fa	-1.123626
25	0xbfc7a38e	-1.5596788
26	0xc0339c68	-2.8064213
27	0xbed8c740	-0.42339516
28	0xc00d61d3	-2.2090957
29	0xc000ae9d	-2.0106575
30	0xbf4a2f92	-0.78978837
31	0xc0b998e5	-5.799914
32	0xbeb85875	-0.36004987
33	0xc018352e	-2.3782458
34	0xbed1f34c	-0.41005933
35	0xbb9e6e33	-0.004834914
36	0xbfdadb48	-1.7098169
37	0x3e06b9bf	0.13156794
38	0xc0980770	-4.750908
39	0xc0189ccf	-2.3845708
40	0xc025a73b	-2.588332
41	0xbf5311b4	-0.8244889
42	0xbfc39fec	-1.5283179
43	0xbf4498d7	-0.76795715
44	0xbfef0660	-1.867382
45	0xbf5921ad	-0.8481701
46	0xc07926c5	-3.8929913
47	0xc00a55df	-2.1614912
48	0xbf62e27d	-0.88626844
49	0xc075cda5	-3.8406765
50	0xbfbef35b	-1.4918016
51	0xbd9fafcb	-0.07797202
52	0xc00b6404	-2.1779795
53	0xc03fa3f2	-2.9943814
54	0xbe42825d	-0.18995042
55	0x3ee0073d	0.43755522
56	0xbfba4a58	-1.4553938
57	0xbf511a5c	-0.81680846
58	0xbf8a0f4f	-1.0785922
59	0x3e58e97f	0.21182822
60	0xc02e397b	-2.7222583
61	0xc017d123	-2.3721397
62	0xbf81bc02	-1.01355
63	0xbf368e06	-0.7131046
64	0xbfbd32bd	-1.4781109
65	0xbf2737a0	-0.6531925
66	0xbf7c03e9	-0.98443466
67	0xbede0377	-0.43362018
68	0xbf8f92df	-1.1216697
69	0xbfc76b83	-1.5579685
70	0xbe7a0b9a	-0.24418488
71	0xbf0709cf	-0.5274934
72	0xbee190af	-0.44055697
73	0xc0060442	-2.0940099
74	0xbe680d4c	-0.22661322
75	0x3eee150e	0.46500438
76	0xbfb6e0a7	-1.4287308
77	0xbfc90081	-1.5703279
78	0xbfb57332	-1.417578
79	0xc021034d	-2.5158265
80	0xc04d5b69	-3.2087042
81	0xc0478255	-3.1173298
82	0xc017b277	-2.3702676
83	0xbf72da8b	-0.9486472
84	0x3dbb6009	0.091491766
85	0xbfdb2c53	-1.7122902
86	0xc00122bd	-2.0177453
87	0xbbed6ae4	-0.0072454084
88	0xbf844794	-1.0334344
89	0xc01942b3	-2.394696
90	0xbf67956d	-0.9046238
91	0xc01c086d	-2.4380143
92	0xc01564d1	-2.3342783
93	0xc063c394	-3.5588121
94	0xbff0889c	-1.879169
95	0xbf206299	-0.6265045
96	0xbf50612f	-0.8139829
97	0xbfe7fd59	-1.812419
98	0xbf457885	-0.77137023
99	0xbe061396	-0.13093409
100	0xc038392b	-2.8784893
101	0xbf7ea5f4	-0.99471974
102	0xbf8d17b3	-1.1022857
103	0xbfa31c03	-1.2742923
104	0x3fb1bf6f	1.3886546
105	0x3ebda7da	0.37042123
106	0xbcfa2833	-0.030536747
107	0xbe41988f	-0.18905853
108	0xc060d0d4	-3.5127459
109	0xbff92286	-1.9463661
110	0xbfc4649a	-1.5343201
111	0x3ee6ee9f	0.45103928
112	0xbdd8c173	-0.105837725
113	0xc07279e7	-3.7886903
114	0xbf54ddf8	-0.831512
115	0xc06d1ea3	-3.704995
116	0xbf02c82a	-0.51086676
117	0xbefb7045	-0.49109092
118	0xbe7b1fe7	-0.24523889
119	0xc002d2e8	-2.0441227
120	0xbf1bb5fe	-0.60824573
121	0x3e9c190a	0.30487853
122	0xc03086a2	-2.7582173
123	0xbf6a0742	-0.91417325
124	0xc003b136	-2.057691
125	0xbf92923b	-1.1450876
126	0xbfbc9300	-1.4732361
127	0xc070dfd1	-3.7636607
